bloctry/.dart_tool/chrome-device/Default/optimization_guide_prediction_model_downloads/0b3b7c3f-aa67-47c9-92ad-56bcf6848e95/model.tflite (tflite, 409956 bytes, 166 tensors)

context_transformer_0/bottleneck_input/norm/add f4 [32]
00000000: e412 473c 8bd5 04be 707d a5bd 64f3 af3b
00000010: 344d edbd 20d6 8fbd 707d 983d 9bb6 063e
00000020: f490 e63c 9d58 693c 586e 6dbc e154 e5bc
00000030: 264e 26be 209a 3abe 7b88 6fbd 510d 94be
00000040: f0f8 2ebc 4bbb 8cbc 9cb7 fdbc a35c 97bb
00000050: f6a5 923c 4ef5 1fbc 9772 2bbd 4772 bd3d
00000060: 1ed4 073d ecdf e0bc 5a5a 03be 9c19 963d
00000070: dae9 dfbb b0a8 5d3d 5e26 3a3c 1ec8 1e3d
0.0121505 -0.12972085 -0.08080566 0.0053695906 -0.11586991 -0.07023263 0.074458 0.13155596
0.02814529 0.014242318 -0.01449164 -0.027994575 -0.16240749 -0.18222857 -0.058479767 -0.2891641
-0.0106794685 -0.017179152 -0.03097134 -0.0046191975 0.017901402 -0.009763075 -0.04185733 0.09250312
0.033161275 -0.027450524 -0.12827435 0.07329103 -0.006833297 0.05411595 0.0113616865 0.038765065

context_transformer_1/bottleneck_input/norm/add f4 [32]
00000000: d3ab 4d3e 9dba bd3c dc34 fd3d 8cf0 50be
00000010: 4537 303e 78ec 82bd 1a57 80be 7479 86be
00000020: cb1a c1bc f235 9dbc aa26 e4bd c93c e53e
00000030: ffff 553d 0056 c73b 0e2c 833d f786 cf3e
00000040: d864 fd3c 2e24 af3c a0b3 4d3c 5d4a b2bd
00000050: e240 5e3e 0c74 b9bd 3dc5 cbbd f37b 803d
00000060: 0b4e 6cbe d231 64be fd6d 65bd fc81 8cbe
00000070: 5e2e 37be b48f 94bc 12e7 7a3d c864 27bd
0.20085077 0.023160273 0.12363598 -0.20404261 0.17208584 -0.06392759 -0.25066453 -0.26264536
-0.023572346 -0.019190762 -0.11140187 0.44772938 0.05224609 0.00608325 0.06404887 0.40532658
0.030931875 0.021379557 0.012555033 -0.0870559 0.21704438 -0.09055337 -0.099497296 0.062736414
-0.23076646 -0.2228463 -0.056013096 -0.2744292 -0.17888781 -0.01813493 0.061255522 -0.040867597

mention_transformer_0/bottleneck_input/norm/add f4 [32]
00000000: 053c 503e f703 11bd cce8 ab3c f228 f9bc
00000010: 4249 9b3d 2213 ac3d e11f b3bc 0e83 db3d
00000020: 3575 453e 0acb 193e 3b85 07bd cebb aa3c
00000030: d4fe a13d 8cf8 d7bc 1aa3 d1bc 0613 3e3e
00000040: 10fe 20be 0c22 6ebd 5e7f 5e3e cc0f 0cbe
00000050: 0e17 dfbd ee8b 50be 1ad9 ca3d b670 42be
00000060: 3627 ffbd a6d9 9b3d 52b4 d73d 1a68 8abe
00000070: 52f1 9e3b 206f d7bd fbca 6ebd 8ac1 4a3c
0.20335396 -0.03540417 0.02098503 -0.030415032 0.07582332 0.08402087 -0.021865787 0.10718356
0.19282992 0.1501886 -0.033086043 0.020841505 0.07909933 -0.026363634 -0.025590468 0.18561944
-0.15721917 -0.05813794 0.21728274 -0.13677901 -0.10893069 -0.20365879 0.0990469 -0.18988308
-0.12458651 0.076098725 0.1053244 -0.27032548 0.004850545 -0.10519242 -0.058299046 0.012375245

mention_transformer_1/bottleneck_input/norm/add f4 [32]
00000000: eefe 58be f49f 17bc 3862 f8bd 8895 f53d
00000010: af24 8dbe e7f9 283e 98b6 76bc ef6e 13bf
00000020: 342c c3bd e3eb 0f3c 6285 26bd 3fe7 b13e
00000030: e0c2 053e 2a15 18be 3537 2d3e 6eab 9abd
00000040: 1a94 15be a92c 7abe e632 50bc ba5b 4e3e
00000050: 4f60 18be 0cce 2abe 1f47 31bd 30da d13b
00000060: 61b0 8abd 6f56 6d3e 0406 18bd 5e72 573d
00000070: d2c5 c1bd 3576 5d3e 08fb a7bd 9d29 9e3e
-0.21190998 -0.009254444 -0.12128109 0.119914114 -0.2756705 0.1650158 -0.015058182 -0.57591146
-0.095299155 0.008784267 -0.040654548 0.3474674 0.1306262 -0.14851823 0.16915591 -0.07552229
-0.14607278 -0.24431099 -0.012707448 0.20152178 -0.14880489 -0.16680163 -0.043280717 0.006404184
-0.06771923 0.23177503 -0.037115112 0.052599303 -0.09461559 0.21627124 -0.08202177 0.30891123

context_transformer_0/attention/value/add;context_transformer_0/attention/value/einsum/Einsum;context_transformer_0/attention/value/add/ReadVariableOp/resource f4 [32]
00000000: 5e75 75bd 6e70 78bd 0f07 a6bd cce2 953d
00000010: ab65 9dbd 22f7 34be 43b1 bcbd 865d 043e
00000020: 8163 a43d 30be 003d ec82 313d 787d 75bc
00000030: 3adf 3fbd 56d6 c23c 9fc0 c53d e085 423b
00000040: b293 9ebd d92d 91bd 181b 303e ea95 883c
00000050: ea4a 973d 82dc 2ebc 84a5 c03d a75e 273b
00000060: a0a1 893d 5612 65bc e630 90bd f3ce cebc
00000070: 07ab 93bc 5b50 36bd 8a23 05bb bbad cbbd
-0.059926383 -0.060654096 -0.08106815 0.07318649 -0.07685407 -0.17672399 -0.092134975 0.12926301
0.08026791 0.031431377 0.043337747 -0.014983527 -0.046843745 0.023783844 0.0965588 0.0029681846
-0.077430144 -0.07088823 0.17197835 0.016673047 0.073873356 -0.01067269 0.094065696 0.0025538595
0.06720281 -0.013981422 -0.07040577 -0.025245165 -0.018025888 -0.044510227 -0.0020315372 -0.09945246

context_transformer_0/bottleneck_input/norm/mul f4 [32, 32]
00000000: f456 6b3e ce78 9e3d a500 403c ce84 003c
00000010: 0b12 7f3d 1f12 a13c 8fa8 1dbd 596b 10bd
00000020: ffd2 3a38 1dc0 1c3d a736 9bbc 1780 dfbd
00000030: 95ba e43b fc38 643e ce85 293e f5bb 2dbe
00000040: f1d6 08be e195 85bd c606 bb3c 5234 46bd
00000050: f24e d63d 547a 11bb 1cff dabd c3f8 853d
00000060: 6d5e babd 7a59 21be 0677 ddbc 5f8f 04ba
00000070: f0fd e0bc b111 8cbe a512 54bd a172 ccbd
00000080: 88e3 a33d 6899 0fbb c588 f03e 084e 40be
00000090: 7aea 343b 7561 49be 9fc4 e63d 0977 233e
000000a0: 4bbe 323e e34f fc3d 26de a43e 8444 97bd
000000b0: 57d4 193d 2557 bb3c db0b 15be 9b72 2b3e
000000c0: f837 353e 0565 46be 6fac c13e d3ad dc3d
000000d0: a064 b43d 3ef9 25bd 25d7 01be 1b7c fd3d
000000e0: f456 cc3e 53f7 3f3c 5d5c 62bd a2ad 4bbd
000000f0: 2527 8abd 1989 96be e0eb 343c db6e 9dbc
00000100: f6e9 d9be ba9c 7cbd c8ae 9cbc eca4 ba3d
00000110: ef05 fc3c 8e8e 363e bdd5 36bc 9d82 523e
00000120: 347a 763d 309b 023d d228 c93c feaa d9bd
00000130: 5667 62be fcd9 efbe 7c4b 83bd b68b 6f3e
00000140: 424d e93d ca13 063e 5a4c ac3e e81a 7ebd
00000150: 0c33 a6be 3fad 833e 2bd3 fb3b 3037 583d
00000160: f6e1 763d b6a4 bc3d 9ce3 2fbd c780 a2be
00000170: ece6 413e 654f d13d 597e cf3d de1e 6fbe
00000180: 8ace 013f b158 ae3d 9218 f8ba 1b15 0e3e
00000190: 0679 c53e 3002 56be be44 97bb 9f58 ef3d
000001a0: c569 4e3e 519d 533e f3f6 f13d 9f0f 5ebd
000001b0: ab27 83bd 5b98 373e c9cc 2ebd 2bb8 54bb
000001c0: 96d9 80bc 948a 213e a791 4b3d 8d06 8f3e
000001d0: 333b 583d fade c1bd 8a68 5d3e dfe7 afbe
000001e0: d4fc 00bd 3bb1 35bd b311 1cbe 8393 86bd
000001f0: ba27 1b3e 5290 18be 3e6f 46be 2159 79be
00000200: a2dd 8e3d 88b3 6f3d c7f6 ffbd a09f 9f3d
00000210: 311e b3bd a3a3 c3bd 522a 8d3d a6f3 26bd
00000220: f296 863d ff88 4b3c cc5a 58be ad8c 85bd
00000230: 4310 a23d 1fe4 fcbc 5ce8 5ebc cdd3 8c3d
00000240: 3be3 2f3e ce14 e0bd 996f 04be 71d6 553d
00000250: 3c1b b6bd e719 733b 783e 863d 9d01 8a3d
00000260: 9af7 4d3c b006 b23c efca 11be 69c2 123e
00000270: b03e 8ebe f0ec 3c3e 8e27 c23a fbcc c33c
00000280: 6818 c4bd a915 3c3e d06b 5e3e 4c5d 80bc
00000290: 02d6 2ebe ec8b 203e 3858 8cbc 3334 7f3e
000002a0: 9a4f acbd ab6c aa3e 901f 8e3e f921 393d
000002b0: a31d b4be bd26 ba3d 3807 9dbb ea39 e03c
000002c0: f7d6 83be 32dd 7f3e d7e4 a83e 5bc1 6c3d
000002d0: 2ee0 0f3e 9137 313e 1a03 96be 23f0 923d
000002e0: e347 683e 87ce e43d 0f65 533e fb61 9e3d
000002f0: feaa e0bd f2ba 39be 8de4 1e3e c359 913e
00000300: 9742 61bd 2a00 1a3e f5f3 a0be c08b 61bc
00000310: 4440 31bc 6570 3fbe ec1f 33be 1cd1 05be
00000320: 78f5 e73d e141 c23c d482 24be d809 023e
00000330: 8199 71be 05eb 2c3e 8c60 89bd e7cb 993e
00000340: c18e ae3e 9ea7 74bd 545c 10bc 50f9 bf3c
00000350: 42a3 68be d33b 6abc 7dc4 993e 2e52 2cbd
00000360: f741 81bd 503e 943d 347c ecbd 3f10 303c
00000370: 99ab e0bd cc4a 053e ac5e 60be 8e4e 5b3d
00000380: 65e9 69be b095 933d 5f12 c33d 8b98 853d
00000390: 6a3f 8a3e e8bf 60be 494e 81bd 8f75 23be
000003a0: bec2 583e 821a a3be bd2b bebd e435 7b3a
000003b0: a7c2 33be 518e a5be a7c3 4bbe ac02 973e
000003c0: 6d69 67be 8b70 763e f378 b13d f3eb 9fbc
000003d0: e36e 023e baf7 63bd 2020 d6bd 2d2d 903d
000003e0: 2b3d 5cbd 2c19 d3be 960f 84be cf10 ad3d
000003f0: f483 8fbd b974 b6be 91b1 3b3e 0678 64bc
0.22982389 0.077378854 0.011718904 0.007844163 0.062273066 0.019661961 -0.038490828 -0.035258625
4.454236e-05 0.03826915 -0.018946959 -0.10913103 0.00698025 0.22287363 0.16554949 -0.16966231
-0.13363244 -0.06522728 0.022830378 -0.04838974 0.104642764 -0.0022198157 -0.106931895 0.06541588
-0.091000415 -0.15756789 -0.027034294 -0.00050567643 -0.027464837 -0.27357247 -0.051775593 -0.09982801
0.080023825 -0.0021911506 0.46979347 -0.18779767 0.002760558 -0.19666083 0.11267971 0.15963377
0.17455404 0.12319925 0.32200736 -0.07386115 0.03755602 0.022868702 -0.14555304 0.16742937
0.17697132 -0.19374473 0.3782687 0.10775342 0.08808255 -0.0405209 -0.12679727 0.12377187
0.3991009 0.0117166815 -0.055263866 -0.049726136 -0.067457475 -0.29401472 0.011042565 -0.0192179
-0.4256131 -0.061672904 -0.019126311 0.091134876 0.030764548 0.17827818 -0.011159358 0.20557638
0.060175136 0.03188628 0.024555597 -0.10628317 -0.22109732 -0.46845996 -0.06410882 0.23393139
0.11391689 0.13093486 0.33652002 -0.06203738 -0.3246082 0.25718114 0.0076850853 0.052787006
0.060274087 0.092111036 -0.042941675 -0.31738874 0.18935746 0.102202214 0.10131521 -0.23351619
0.5070578 0.0851301 -0.0018928221 0.13875239 0.38568896 -0.20899272 -0.004616349 0.11686825
0.20157535 0.2066548 0.1181468 -0.054214116 -0.064040504 0.17929213 -0.042675767 -0.0032458405
-0.015728753 0.1577552 0.04969945 0.27934685 0.05279083 -0.094663575 0.2162191 -0.3435659
-0.031491116 -0.044358473 -0.15241127 -0.065711044 0.15151873 -0.14898804 -0.19378373 -0.24350406
0.06975867 0.058520824 -0.12498241 0.07794118 -0.08745993 -0.095526956 0.068928376 -0.040759705
0.06571759 0.012422799 -0.21128386 -0.065209724 0.07913258 -0.030870495 -0.0136052035 0.06876335
0.17176525 -0.10941468 -0.12933196 0.05220646 -0.08891913 0.0037094296 0.06554884 0.06738589
0.01257124 0.021731704 -0.1423757 0.14331974 -0.27782202 0.1844976 0.0014812814 0.023901453
-0.095749676 0.18367638 0.21720815 -0.015669487 -0.17073825 0.15678376 -0.01713191 0.24922256
-0.0841362 0.33286032 0.27758455 0.045198414 -0.3517886 0.0908942 -0.0047921203 0.027371366
-0.25749943 0.24986723 0.3298709 0.057801586 0.14050362 0.17306353 -0.2929924 0.07174709
0.22683673 0.111722045 0.2064402 0.07733532 -0.10970114 -0.1813772 0.15516873 0.28388795
-0.054995146 0.15039125 -0.31436124 -0.013766229 -0.010818545 -0.18695219 -0.17492646 -0.1306805
0.11326116 0.023713054 -0.16065532 0.12699068 -0.23593713 0.16886528 -0.06707868 0.30038378
0.34093288 -0.059730165 -0.008811075 0.023434311 -0.22718528 -0.01429649 0.3003272 -0.04207056
-0.0631141 0.07238448 -0.11547127 0.010746061 -0.1097023 0.13016814 -0.21911114 0.053541712
-0.22842939 0.07206285 0.095249884 0.06523236 0.27001506 -0.21948206 -0.0631376 -0.15962814
0.21168038 -0.3185616 -0.09285686 0.00095829205 -0.17554723 -0.3233514 -0.19898854 0.29494226
-0.2259881 0.24066369 0.08665647 -0.019521689 0.12737612 -0.055656172 -0.10455346 0.070398666
-0.05376927 -0.41230142 -0.2579314 0.084504716 -0.0700759 -0.35635927 0.18329455 -0.013944631

context_transformer_0/kq_shared_bottleneck/norm/mul;context_transformer_0/kq_shared_bottleneck/norm/add;context_transformer_0/attention/key/einsum/Einsum;context_transformer_0/attention/key/add;context_transformer_0/attention/value/einsum/Einsum;context_transformer_0/attention/key/add/ReadVariableOp/resource f4 [32]
00000000: b602 f2bd f446 9fbe e8d1 e33e bce7 833e
00000010: 3aa6 773d a393 153f 590a 1dbf 9d8e f03e
00000020: b416 853d 694c 063e f10b fc3d 5365 6b3e
00000030: a87d 213d 2482 88be f3ea e33d 4504 2abe
00000040: 7bae b03e c254 b5be fef7 e6be ee5d 07bf
00000050: 6f87 34bf ca58 463e 5d78 34be 8c45 bb3d
00000060: b320 623e 6ba8 56be a380 98be 78e9 473e
00000070: 7f8e 8dbd 52e1 c33e e619 3c3c 1af1 c73e
-0.11816923 -0.3110882 0.44496083 0.25762737 0.06046126 0.584284 -0.61343914 0.46983805
0.06498471 0.13115086 0.12306965 0.22987871 0.039426476 -0.2666179 0.111287974 -0.16603191
0.34508118 -0.35416228 -0.45111078 -0.528777 -0.70519155 0.19369808 -0.1762404 0.091441244
0.22082786 -0.20962684 -0.29785642 0.19522655 -0.069119446 0.38257843 0.011480784 0.39051133

context_transformer_0/kq_shared_bottleneck/norm/mul;context_transformer_0/kq_shared_bottleneck/norm/add;context_transformer_0/attention/key/einsum/Einsum;context_transformer_0/attention/key/add;context_transformer_0/attention/value/einsum/Einsum;context_transformer_0/attention/key/add/ReadVariableOp/resource1 f4 [32, 32]
00000000: 1eb5 44be 5cd5 49be ce29 48be a62f 26be
00000010: 3825 7f3d c836 853e 8570 0c3e f3ab 6cbe
00000020: 92a7 b83e e3b6 d33d fe13 cbbe 52d3 283f
00000030: c3f9 c4be 432b 343e 2965 fabe bbc9 3a3e
00000040: 91af b33d cfa7 26be 3382 f6bd 2f76 86be
00000050: aa6b f43e 0954 c7ba 5294 eebd a9cc adbe
00000060: 9e46 b73e 90e6 15bf 0122 b5be 9411 de3e
00000070: e7c9 a23c f2c4 a23e 4492 19be 8314 c83d
00000080: c4cc 4fbe eb15 e4bc 1090 c33d ab9a c4be
00000090: 7974 403d 6b35 3bbf eee8 903e 4f1b a13e
000000a0: cc1c 9abe 3591 a23e 0608 283f b5ed b7bd
000000b0: f66c 2dbe 4b69 19bd 77d1 273d 3e74 253d
000000c0: fe18 2abe dedf 623e 5e23 3d3e 05f5 1fbe
000000d0: d2bf 20bf c414 aa3d 1f97 83be 997b 12be
000000e0: d4e0 2ebe 0824 323e 5c39 d8be ba29 88be
000000f0: 1d39 283e 81ed e13d d8d2 dbbd a53a 143c
00000100: 5c86 bb3e 7723 18bc f33e e5be e45f 78bd
00000110: 1368 dfbd 38c5 123f 3da1 773e cfe4 913e
00000120: deec 87be e0af 9a3d 7ccb 143f 17f5 313e
00000130: d999 15be 9330 10be 885e ecbd 8d4b a63e
00000140: 6525 6d3f 5d52 a13e b3e6 903d 1837 f73c
00000150: 04cd 373e 1446 62be adf6 8d3e 0947 13be
00000160: b9cc d7be 46e1 413e 35e7 77bf a1b7 d9bd
00000170: f85e 10bf f0fb 623d c33d 6d3e 026b 263b
00000180: feb6 e53e b7e8 8d3d ffe1 48be 1ba7 ab3e
00000190: 2f64 8fbd 5891 273f 20af 42be 5d0f a73d
000001a0: 308c 913d b13c efbd c400 05bf 374e 16be
000001b0: 2bd4 e73d d7a5 923d 1108 103e fe66 3d3d
000001c0: 51ea b43e 5d63 38be 3c80 f7bd 4730 bbbd
000001d0: c681 ffbb b31e 253d 5d4b 083f 4e9d c33d
000001e0: 266f 7a3e 26ad 5f3e e11e 543e ea47 1fbe
000001f0: 2d00 38be 5fe2 dcbd 2e65 353e 39fd dc3d
00000200: f47c 03bf 86a1 553d df54 853e 1c1d 66be
00000210: 5bf7 45bc bfaa 9cbe 9e8c 573d c816 fcbd
00000220: a8a9 183d 5ed3 073f e526 153e 5042 b93e
00000230: d374 51bd 976b 5ebe ac18 dbbd cc93 0fbf
00000240: 4b04 9a3d 9b12 473e 2d12 28be 733a 8b3e
00000250: 3107 843e 953b ae3d f931 dcbe 7fed b1bd
00000260: dc2a a3be 77da 9cbe 7b46 0dbe 1602 a33e
00000270: c840 823d 25e7 733e 322a 2dbe f315 21be
00000280: 6944 863e d770 063e f3ce 15bc db00 8b3e
00000290: dfb6 57be c662 023f f5ad 0cbe e5be 29be
000002a0: 76c5 80bd 9e4e 6dbe 9b35 303e f74d d0bd
000002b0: 2478 c23e 5ff9 6dbe e476 293e 5b4c 63be
000002c0: ff8c 103f 3f2b 303d a464 b63d dafc 0c3f
000002d0: 9b5e 243f c8cf 79be cd19 3c3e c5ee 693e
000002e0: b18f 05bf 1846 053e 6185 113e 1d99 c73c
000002f0: 62cb f3be 0116 a1be 6d04 a33e 1c04 efbd
00000300: c018 9fbb 9918 2abe a4bd b7bd 9601 46be
00000310: b6c6 e23d ed47 ffbe d4c6 553e 6c1f a13e
00000320: 5639 a0bd 46e3 993e fc9d bc3d 232e bdbc
00000330: 3966 a8be c9e1 b13e b4c6 f6bd 39a0 023f
00000340: 5dd1 02bf 0796 36be 0521 f6bd 9806 1abf
00000350: a9e1 6dbf 28c4 ce3d 69cf 80bd e21e 51be
00000360: f893 e23e 1c21 97bd 54e9 9ebe b1f3 99bd
00000370: fd5d 883e fc31 8b3e 0c41 a0be 6fc1 703e
00000380: ee1d 82bc dcf8 be3d bcae 9ebe 1cae 26be
00000390: 4446 623e 5933 513e 1a17 063f 8abf afbe
000003a0: 7542 073d 7095 c6be cdae e53d 5e52 98bc
000003b0: 6315 93be ff3f d6bd 8b61 0cbd d780 77be
000003c0: 3359 833f b1cc f93e 642b 313e d8af 55be
000003d0: b062 303f 0d27 ffbd 320b 8b3e d491 8dbe
000003e0: 8d44 81bd ab9d 263e ebc6 0fbe 588c 06bf
000003f0: 06b4 8f3c 84a9 fbbe 8176 253f 026d c6bd
-0.19209716 -0.19710296 -0.19547197 -0.16229114 0.062291354 0.26018357 0.13714798 -0.23112468
0.36065346 0.10337617 -0.3966369 0.6594745 -0.38471803 0.17594628 -0.48905304 0.18241017
0.08773721 -0.16274951 -0.12036552 -0.26262042 0.4773839 -0.001520754 -0.116493836 -0.33945206
0.35796064 -0.58554935 -0.35377505 0.43372786 0.019871665 0.31790882 -0.14997202 0.09769537
-0.20292956 -0.027842483 0.09548962 -0.38399252 0.046986077 -0.73128384 0.2830271 0.31466147
-0.30100095 0.3175141 0.6563724 -0.08980886 -0.16936097 -0.03745393 0.040971246 0.04039406
-0.16611096 0.22155711 0.18470523 -0.15620811 -0.62792695 0.08304742 -0.25701234 -0.14304961
-0.17077953 0.17396557 -0.42231262 -0.26594335 0.16428037 0.110316284 -0.10733575 0.009047185
0.36625946 -0.009285799 -0.4477459 -0.060638323 -0.109085225 0.5733218 0.24182601 0.2849488
-0.26547903 0.07553077 0.5812299 0.1737865 -0.1460947 -0.1408103 -0.11541468 0.32479516
0.92635185 0.3150815 0.070752524 0.030177638 0.17949301 -0.22097045 0.2772726 -0.14382567
-0.42148378 0.18933591 -0.9683717 -0.106307276 -0.5639491 0.055416048 0.23168091 0.0025393371
0.44866174 0.069291525 -0.1961746 0.3352593 -0.070015304 0.6545615 -0.19012117 0.08157227
0.07106817 -0.11681498 -0.51954293 -0.14678274 0.11319765 0.07160538 0.14065577 0.0462408
0.3533502 -0.18006654 -0.12085006 -0.091400675 -0.0077974526 0.04031248 0.53239995 0.09551488
0.24456462 0.21843395 0.20714904 -0.15554777 -0.17968817 -0.10785364 0.17714378 0.10790486
-0.5136254 0.052155994 0.26041314 -0.22472042 -0.0120829 -0.3059902 0.052624337 -0.12309033
0.03727117 0.53056896 0.14565618 0.36183405 -0.051136803 -0.2172073 -0.10698065 -0.56084895
0.0752035 0.19440691 -0.16413184 0.2719303 0.25786737 0.08507458 -0.43006876 -0.08687877
-0.31868637 -0.30635425 -0.13796417 0.3183753 0.06360012 0.23818643 -0.16910627 -0.15731029
0.26224068 0.13128982 -0.009143579 0.2714909 -0.21065854 0.50931966 -0.13738234 -0.16576727
-0.06287663 -0.23174521 0.17207949 -0.101711206 0.37982285 -0.23239659 0.1654926 -0.22197096
0.5646514 0.043009993 0.089059144 0.5507332 0.64206856 -0.24395669 0.18369217 0.2284499
-0.5217238 0.1301502 0.14211036 0.024365002 -0.47616106 -0.314621 0.31839314 -0.11670706
-0.0048552454 -0.16610946 -0.08971718 -0.19336542 0.11073057 -0.49859563 0.20876628 0.31469285
-0.07823436 0.30056208 0.09209821 -0.023093289 -0.3289049 0.34742573 -0.12049618 0.5102573
-0.51100713 -0.17830668 -0.12018017 -0.6016631 -0.92922455 0.100960076 -0.0628956 -0.20421937
0.44253516 -0.07379362 -0.3103739 -0.075171836 0.26634207 0.27186573 -0.31299627 0.23511289
-0.015883412 0.0932481 -0.30992687 -0.16277355 0.22097117 0.20429744 0.52379 -0.3432582
0.033022363 -0.38785887 0.11214981 -0.018593963 -0.28727254 -0.10461425 -0.03427271 -0.24170242
1.0261596 0.4878898 0.17301708 -0.2086786 0.68900585 -0.1245862 0.2715698 -0.2765032
-0.06311903 0.16271083 -0.14040725 -0.525579 0.017541897 -0.49152768 0.6463395 -0.0968876

context_transformer_0/kq_shared_bottleneck/norm/mul;context_transformer_0/kq_shared_bottleneck/norm/add;context_transformer_0/attention/query/einsum/Einsum;context_transformer_0/attention/query/add;context_transformer_0/attention/value/einsum/Einsum;context_transformer_0/attention/query/add/ReadVariableOp/resource;context_transformer_0/attention/Mul;context_transformer_0/attention/Mul/y f4 [32]
00000000: 75bc 263c f58d 07bd ac4b c33e f4c9 433d
00000010: c95f b43d 36e6 913e f4aa 3dbe eda0 bcbd
00000020: 50c8 2b3d 7b5e 1f3e 9dd7 803e 9073 3e3e
00000030: ce3d b53c b6ba 6bbe e200 cd3c 92aa 30be
00000040: 8123 df3d 4a88 6dbd efef 9cbe 9b97 02be
00000050: edd1 7abe 0edd f9bc 06b1 8b3a 6cf8 bcbe
00000060: 34de 463d dc65 04be 10b1 90be b64b 203d
00000070: 17a9 2dbd 537e 053f 3e6e 50bd d416 af3e
0.010176768 -0.033094365 0.3814367 0.04780002 0.08807332 0.2849595 -0.18522245 -0.09210382
0.04193908 0.15563385 0.251645 0.18598771 0.022124197 -0.23020443 0.025024835 -0.17252567
0.10895444 -0.057991304 -0.30651805 -0.12753145 -0.24494143 -0.030500915 0.0010657615 -0.3690828
0.048551753 -0.12929481 -0.28260088 0.039134704 -0.042397585 0.5214588 -0.050886385 0.34197104

context_transformer_0/kq_shared_bottleneck/norm/mul;context_transformer_0/kq_shared_bottleneck/norm/add;context_transformer_0/attention/query/einsum/Einsum;context_transformer_0/attention/query/add;context_transformer_0/attention/value/einsum/Einsum;context_transformer_0/attention/query/add/ReadVariableOp/resource;context_transformer_0/attention/Mul;context_transformer_0/attention/Mul/y1 f4 [32, 32]
00000000: c9cf a5bd c5db aebd 2789 d13c a6d4 c1bd
00000010: 4c29 97bd b671 bbbd f3c8 043d 377a 65bc
00000020: 6455 49bd 588c 1d3e d32a ee3d 63b7 f03d
00000030: 72e3 07be 4af6 09bd f649 ec3b 760f 053e
00000040: 56c7 6dbc 2ab0 7ebd 80c8 dfbd 4dc4 be3d
00000050: ef5b c03d de42 2e3d 26fa aebd 3c6a 633d
00000060: 68cd 20be 2f88 39bc 6dd0 d7bc 1860 b33e
00000070: 4fc9 c7bd a8d0 533e bf6f b9bd bde6 943c
00000080: 39b3 c53a a7e4 193d 8582 633b 32a1 d9bd
00000090: ddd3 843c 5500 8c3d 9208 923d ffb7 903d
000000a0: 7819 8d3c 5cdb a53d f1eb 5b3d 83f1 e93b
000000b0: cbf8 12be abd8 153d afae aabd b28d 04be
000000c0: 96f0 0d3d 7aa6 3f3e d353 8b3e 5245 20be
000000d0: 8243 eabd 6102 493d 9052 3d3c 7f16 40be
000000e0: b2f3 983c fea0 803d df11 89be 3df0 48be
000000f0: 304b bc3d fc37 97bd 8462 ed3c c9e6 adbc
00000100: 72fc d93d bc5a a4bc d93a 15be 11d6 923d
00000110: b383 263c 6deb f53d 5cbc 123e 89e4 a93d
00000120: 54c7 143c 7322 a43e e443 df3d 943e cabd
00000130: c8cc 31bd c908 9b3d 9c2f 2c3e 0943 10bd
00000140: 19f5 b93e 66ee 0d3e 5a32 26be 79f1 f73d
00000150: 944d 523d 33cf dcbc 9df7 603e 7200 97bd
00000160: 3f14 27be 3354 d73d fb87 57be 06fa 7fbd
00000170: c792 b7bd 0b05 183c b784 60bd 41c3 d43d
00000180: 76ae 493d 41eb 53bd 8f82 a4bd ff31 e43d
00000190: 429d 3a3c 96ee b13d 2777 123b 780e bd3c
000001a0: adce aebd 7660 f9bd af0f 84bd dcbc 23bd
000001b0: 94ae a73d 2dbd 2e3d c111 153e 40bc 8b3e
000001c0: 8d93 07bd 4f9b 0dbe 033c 33be 2582 523c
000001d0: 6655 83bb 2396 a2bd bdf8 ac3d e28e bd3d
000001e0: 9448 403d 6f26 47b9 9571 463e f87e af3d
000001f0: dd1f 7fbd f593 573d eb70 00bd f133 d83d
00000200: b7e0 58bd 8e24 51bd 4ba7 2f3c 96f2 58bd
00000210: 5952 7a3c 2926 86bc 80b1 57bb c63b 1ebe
00000220: faea 533e 4074 ad3d 4770 5e3d b6f2 193e
00000230: d274 e8bc 38cb 823c 0c51 43be da5f 6bbe
00000240: d38d 9b3d 9a3b f6bb e36a 063e 2012 563c
00000250: ac5c 4d3e 77ce a73c d499 c3bd 7ff6 d6bd
00000260: 1326 74bd 85ff 7bbd 42aa 32be 9fe7 e13c
00000270: 9317 cf3c 3371 75bd 2ef4 2e3c 4428 91bd
00000280: d1f8 b73d 0c32 283d edb3 97bd ee6d 833e
00000290: 2162 703c dfed 103d 4798 5abd 45e0 e5bd
000002a0: ffac ed3d afd9 023d 4dd7 15be ea22 0dbe
000002b0: 0602 803e 0445 e4bc 115b fb3d 286c 56be
000002c0: 92ca 613e 6137 39bd 79cd 9bbe 0f87 583e
000002d0: 144d 1d3e e67a 8fbd 018f d73d 0150 9f3d
000002e0: 8c1d 95bc 5baf 6ebc c3f8 223e f494 0abe
000002f0: 46b8 14bd a42b 2cbe 748f 623d 8112 b83b
00000300: c5f8 e6bd 72bd 19bd ac57 bbbb 4424 59be
00000310: ac4d c5bc 100c 0ebd 79ba 7d3d 83fd 423e
00000320: 4fae 45be 5f78 06bb 12f0 353e 9711 653d
00000330: e0ff 73be 7d3d 5c3d 2b4f 2cbd e655 8a3e
00000340: 7a43 39be 3589 9f3d 21f0 863e 12b4 87be
00000350: 3d15 86be d637 b23d 0cae a6bd aae8 bbbd
00000360: d0c4 6f3d 2aae f53d 397f 6abe 13b6 593d
00000370: abbd 613d 6a16 193e 75ca 9cbd 45cc 683d
00000380: 8a1c 793e 485b e33c ff25 fc3c 4c00 e03d
00000390: 4bda 0e3c 25c0 3d3d d1de e63d ed7e a4bc
000003a0: a89e 4f3d ce22 7c3e db36 60bd df80 6ebc
000003b0: f75a acbd 2e09 31bd 928d 443d 2ddd 02be
000003c0: 9a5e 903e 1d6c 483c 0f49 3bbe 46ca d83d
000003d0: 5d0c bbbc 317d c1bd 6296 513e f528 7abd
000003e0: 6269 b8bd 0eb5 02be 9566 0bbc 5376 4fbc
000003f0: a1c3 dcbd 2bb7 abbb a081 193d 41c0 afbc
-0.080962725 -0.085380115 0.025578095 -0.094643876 -0.07380924 -0.09152548 0.032418203 -0.014006189
-0.0491537 0.15385568 0.11629262 0.11753728 -0.13270357 -0.033682145 0.0072109653 0.12994179
-0.014512857 -0.062179722 -0.10926914 0.09314785 0.09392535 0.04254424 -0.08543806 0.055521235
-0.15703356 -0.011323973 -0.026344502 0.3503425 -0.097551934 0.20685065 -0.09054517 0.01817643
0.001508332 0.037571575 0.0034715247 -0.10626449 0.016214306 0.06836001 0.07130541 0.070663445
0.017224059 0.0809848 0.053691808 0.007139386 -0.1435272 0.036583584 -0.083340995 -0.12944677
0.03465327 0.1871585 0.2721239 -0.15651444 -0.11438657 0.049074534 0.011555329 -0.18758582
0.01867089 0.06280707 -0.26771447 -0.19622894 0.091940284 -0.07383725 0.02897764 -0.021228211
0.10643853 -0.020062797 -0.1457323 0.07169736 0.0101632355 0.120077945 0.14329666 0.08295543
0.009080727 0.32057533 0.10901621 -0.09875217 -0.043408185 0.07570035 0.16815037 -0.03522018
0.36319807 0.13860473 -0.16230145 0.12106604 0.051343516 -0.026954269 0.21969457 -0.07373132
-0.16316317 0.105141066 -0.21047966 -0.0624943 -0.089635424 0.009278546 -0.054814067 0.10388804
0.049238645 -0.051738027 -0.080327146 0.111423485 0.011390032 0.08688085 0.0022348852 0.023078188
-0.08535514 -0.121766016 -0.06448304 -0.039975032 0.08187595 0.04266088 0.14557554 0.2729206
-0.0330997 -0.13828777 -0.17503361 0.012848412 -0.004007983 -0.079387926 0.084458806 0.09255768
0.046944216 -0.00018992437 0.19379266 0.08569139 -0.062286247 0.052631337 -0.031357687 0.10556782
-0.05294868 -0.051060252 0.010721038 -0.052965723 0.015278422 -0.016375618 -0.0032912195 -0.1545249
0.20695105 0.084694386 0.054306295 0.15033993 -0.028376017 0.015966043 -0.19073886 -0.22985783
0.0759541 -0.0075144293 0.13126712 0.013065845 0.20054883 0.020484192 -0.09550825 -0.10496234
-0.059606623 -0.06152298 -0.1744776 0.027576266 0.025279796 -0.05992241 0.010678334 -0.07087758
0.08983005 0.041063353 -0.07407365 0.25669807 0.014671833 0.0353831 -0.05336788 -0.11224417
0.11605262 0.03194588 -0.14632912 -0.1378285 0.25001544 -0.02786494 0.12273229 -0.20939696
0.2204993 -0.04521883 -0.304302 0.21145271 0.15361434 -0.07005863 0.10525323 0.077789314
-0.018202566 -0.014568175 0.15915208 -0.13533384 -0.03630855 -0.16813523 0.05531259 0.00561744
-0.11277918 -0.037534185 -0.0057172384 -0.2120524 -0.024084888 -0.034679472 0.061945412 0.1904202
-0.19304775 -0.0020518524 0.17767361 0.055924978 -0.23828077 0.053769577 -0.042067688 0.2701866
-0.18092147 0.07789842 0.2635508 -0.2650457 -0.2618808 0.08702056 -0.081386656 -0.091752365
0.058537304 0.1199611 -0.22900094 0.053152155 0.055112522 0.14949957 -0.07655803 0.05683543
0.24327293 0.027753487 0.030779837 0.109375566 0.008719037 0.04632582 0.112729676 -0.020080054
0.050688416 0.24622652 -0.054739814 -0.014557092 -0.08415788 -0.043221645 0.047986574 -0.12779684
0.28197175 0.012232807 -0.18289588 0.105854556 -0.022833044 -0.094477065 0.20467523 -0.061074216
-0.09004475 -0.1276438 -0.008508344 -0.012662488 -0.10779501 -0.005240341 0.037477136 -0.021453978

context_transformer_0/ffn_layer_0/intermediate_dense/einsum/Einsum;context_transformer_0/ffn_layer_0/intermediate_dense/Relu;context_transformer_0/ffn_layer_0/intermediate_dense/add f4 [32]
00000000: be05 1bbe a580 dabe 4d20 f2be 85db 93be
00000010: 3ddc 68be 5e54 abbc 12ac 2c3c bd91 d7be
00000020: 6ff1 99be cafa 57be ff0d 93be be1d acbe
00000030: 2bc3 8cbe 5bab cbbe 00c3 03bf c43e ecbe
00000040: df6d ebbd 2ea8 02be 3f4e 34be 01e3 8abd
00000050: 2bc0 59be cbc4 6abe ed47 8abe 9ce4 fbbc
00000060: 6c3d bcbe e9d2 08be 8acd c3be 915a 87be
00000070: aa9f a6be a745 c2bd e763 97be 5e6f ffbd
-0.15138909 -0.42676273 -0.4729027 -0.28878418 -0.22740264 -0.020914253 0.010539072 -0.42103377
-0.30067012 -0.21091762 -0.28721616 -0.3361644 -0.2749265 -0.3977917 -0.5146942 -0.46141636
-0.114955656 -0.12759468 -0.17607974 -0.06781579 -0.21264713 -0.22926633 -0.27008 -0.030748658
-0.3676561 -0.13361706 -0.3824275 -0.26436284 -0.3254369 -0.094859414 -0.29568407 -0.124724135

context_transformer_0/attention/norm/mul;context_transformer_0/attention/norm/add;context_transformer_0/ffn_layer_0/intermediate_dense/einsum/Einsum;context_transformer_0/ffn_layer_0/intermediate_dense/Relu;context_transformer_0/ffn_layer_0/intermediate_dense/add f4 [32, 32]
00000000: f593 17be c17f 11be fe24 333e 70de f4bd
00000010: 76ff e9bc 6429 dc3d 43fd 453e 2527 4dbd
00000020: 86ea 8cbd 9fce c837 6301 963e d1f0 afbe
00000030: 5003 1abd 3718 9fbd 7fe8 823d 83f5 893e
00000040: 42ca 72be 0de4 3ebd 1716 79bc 8dae 403d
00000050: 00f9 9ebe 7f94 003d 5d45 18be 0e65 7bbe
00000060: d864 fe3d 0fc7 12be b820 d43d db0b 41be
00000070: f02e 023a 383f 9ebd 1110 aabd 02c6 8ebd
00000080: 883d 463e 5906 8e3d 0ca7 e23d 8361 07be
00000090: bf01 71be 9084 7bbe fde8 6cbe 95f1 1cbe
000000a0: af97 dbbd e57a 1ebe 18c7 283e 8252 babe
000000b0: 1532 673d 5f06 96be 43b5 abbd d473 d13c
000000c0: b9fe 26be d293 85bd 06a1 7ebd 3def bbbc
000000d0: 5434 803e d5e1 6d3e 6e21 28bd 4daf 6abd
000000e0: 370a a53d daff a13d b6d1 2abe 32d2 d0bd
000000f0: 3de7 e13c 14d4 a2bc a40d 1bbd 99e8 21be
00000100: afda 5fbe b702 e33d eacd 22bd 1fd7 17be
00000110: aa14 403d 62bf bbbd 3c30 afbd 8ea2 8dbe
00000120: 4167 b6bd 2345 f5bd 2c89 2c3e 2163 3f3e
00000130: 7c29 b63e 6537 f1bd 7faa fb3d ee99 153e
00000140: 8418 86be 4add 0cbd 927f 1f3e 5b99 a63d
00000150: c16f 23be 0f13 c1bd edf8 36bc 697f 22be
00000160: 8b79 dfbd db8d 803e f111 0a3d ac36 b33c
00000170: f1c5 3f3e 9ddc aeb9 215e d7bd e31d 4ebe
00000180: da26 bbbd fd5b 023e 87bb fd3c 1077 28be
00000190: 850b 22be 69cc 10bd e95d 2e3e 718f 22be
000001a0: cba4 1bbe ee34 173e 4eb3 643d 62bd c93d
000001b0: 1e02 e93d 08d0 823e 1ca4 94bb fdf2 cc3d
000001c0: 4683 d3bd 18db d6bc 057f 05be 751c 9e3d
000001d0: 0d5e 39be 6776 ea3c e043 dfbd e632 b3bd
000001e0: a867 c6bd 0ef9 9e3c 3e92 87be a22b 96bd
000001f0: 3237 853e 2365 febd 14dd 1abd 100f 193e
00000200: 1572 1cbe dc34 07be 9877 d13d 31b1 0a3e
00000210: a2cf 5dbe ea63 bb3e 1eac f1bd e719 0fbe
00000220: 179f be3c 396b aebd 6532 e03d 9c8e bcbe
00000230: 3889 2e3c a7f8 2e3e a822 e1bd 85a8 15bc
00000240: 7c55 083e 9b23 44bc c734 40bd c358 3abc
00000250: e7f2 2abd 64c2 6b3e 2ffb a5bc 3038 d9bd
00000260: 7d0e d23c bda5 d3bc 9d22 733e 945a 3ebe
00000270: 7be1 1bbe 3ff3 ea3b df8d 803e 3881 18bf
00000280: e293 4fbb 6c23 89bd 59dd bb3e cb07 bcbc
00000290: fb7f 073c b5a4 dfbd 6d02 c03c afbb 243e
000002a0: 622e c73e de0f 85bd 9abc b9bc a453 6b3d
000002b0: 30b2 e83d 7339 9dbd ff48 843e 2e8f a13d
000002c0: 4521 b7bd 404a 0b3e 8915 3d3b bcab c33d
000002d0: c190 dabd fe1b 21bd 1db3 2d3e 3bc7 3ebe
000002e0: bda9 f2bd 187c 4fbd 5b35 babe 8cf3 cd3c
000002f0: fd0c c8bd e1b0 a1bd 5037 883e 8c3c a3bd
00000300: fc61 03be 3d30 9b3e 3713 3f3d fa90 a63e
00000310: 242b 04be d20e 02be 8a96 403b 4179 7cbe
00000320: ed82 a43e 0a26 39be eacd d23c 556e d8bd
00000330: a6b4 01be c63a d0bc c112 353d 56b3 f6bd
00000340: 8e61 1b3e 3816 323e cc5c b23c a5c9 913e
00000350: 2c71 bb3e a351 953d 8c0d c5bd 4a6c e0bd
00000360: 7c7f 3fbe 351c c3bb 8d5f a53d 6bd3 a8bd
00000370: eb10 733a a704 a4bd 8c3a debc 3777 9a3e
00000380: 74da c43c 8463 973d f7dc dc3e f226 af3c
00000390: ff25 71bd 2523 73bd 995b 5d3c 6466 1f3e
000003a0: c84d 913e 3e05 0abe c9c9 4bbd 1012 993d
000003b0: 0a8e 9f3e 491e 8fbc 6bb0 3d3e 3fae 063e
000003c0: 2999 a23c f758 883d 014f 16bd ad91 083e
000003d0: db92 86bc a901 d73c 552e 553e 1adf 84bd
000003e0: 8077 f03d 6251 a0bd 3d8f 52be c60a 9a3d
000003f0: f0f6 e1bd e2ab 03be 0a31 b93d a210 babd
-0.14802535 -0.1420889 0.1749458 -0.11956489 -0.028564196 0.10750082 0.19334893 -0.05008616
-0.06880669 2.3938073e-05 0.29297933 -0.34363416 -0.037600815 -0.077682905 0.06392001 0.26945123
-0.23709968 -0.046604205 -0.015203021 0.047041465 -0.31049347 0.031391617 -0.1487021 -0.24550268
0.12421578 -0.14333747 0.10357803 -0.18852179 0.00049661007 -0.07726902 -0.08303846 -0.06971361
0.1935941 0.069348045 0.11067018 -0.13220792 -0.23535822 -0.24562287 -0.23135753 -0.15326531
-0.10722291 -0.15476568 0.16482198 -0.36391073 0.056444246 -0.29301736 -0.08384182 0.025567926
-0.16308106 -0.06522335 -0.062165283 -0.022941226 0.25039923 0.2323068 -0.041047506 -0.057296086
0.08058589 0.07910128 -0.16681561 -0.101963416 0.027576083 -0.019876517 -0.037854806 -0.15811385
-0.21860765 0.11084502 -0.039747156 -0.14828156 0.046894707 -0.09167363 -0.08554122 -0.27663082
-0.08906413 -0.119760774 0.16849202 0.18690158 0.35578525 -0.11778144 0.12288379 0.14609501
-0.2619058 -0.034390725 0.15576008 0.08134719 -0.159606 -0.09427463 -0.011167747 -0.15868916
-0.10911854 0.25108227 0.033708517 0.021876656 0.18727852 -0.00033352236 -0.105160005 -0.20128588
-0.0913827 0.12730403 0.030973209 -0.16451669 -0.15824707 -0.03535119 0.17028011 -0.15875031
-0.15199582 0.14766285 0.05583506 0.09850575 0.11377357 0.2554934 -0.004536165 0.10007284
-0.10327773 -0.026227519 -0.13036735 0.077202715 -0.18102284 0.028620912 -0.10901618 -0.087499425
-0.096877396 0.019405868 -0.2647876 -0.07332541 0.26018673 -0.12421634 -0.037808493 0.14947152
-0.15277894 -0.13203758 0.10227889 0.13544156 -0.21661237 0.36599666 -0.11800407 -0.13974725
0.02326922 -0.08516545 0.10947112 -0.36827552 0.010652833 0.17087041 -0.10992938 -0.0091344165
0.1331386 -0.01197138 -0.046925332 -0.0113737015 -0.041735556 0.23023373 -0.020261375 -0.1060642
0.025641674 -0.025835866 0.23743673 -0.1858924 -0.15222733 0.0071701105 0.2510824 -0.5957217
-0.0031673838 -0.06696209 0.36692312 -0.022952935 0.008270259 -0.10920087 0.023438657 0.1608722
0.38902575 -0.06497167 -0.02267294 0.057452813 0.113621116 -0.07676973 0.25836942 0.078886375
-0.089418925 0.13602543 0.0028851947 0.0955424 -0.10672141 -0.039333336 0.16962858 -0.18630688
-0.11848781 -0.050655454 -0.36368832 0.025140546 -0.09768102 -0.07895065 0.266047 -0.07970533
-0.12830347 0.3031024 0.046649184 0.32532483 -0.12907082 -0.12700966 0.0029386603 -0.2465563
0.32131138 -0.18080917 0.025732953 -0.10567919 -0.12666568 -0.02541865 0.04420734 -0.12045924
0.15173933 0.17391288 0.021772765 0.28474155 0.3660978 0.072909616 -0.096217245 -0.109581545
-0.18700975 -0.0059542903 0.080748655 -0.0824345 0.00092722353 -0.080087 -0.027127527 0.3016908
0.024029948 0.07392028 0.43137333 0.021380875 -0.058874127 -0.05935969 0.013510608 0.15566403
0.28379655 -0.13478562 -0.049752984 0.07474148 0.31163055 -0.017470496 0.1852433 0.13152407
0.019848423 0.06657594 -0.036696438 0.13336821 -0.016427448 0.026245909 0.20818456 -0.06487866
0.11741543 -0.078280225 -0.20562454 0.07521586 -0.11033428 -0.12858537 0.090425566 -0.09085204

context_transformer_0/ffn_layer_1/intermediate_dense/einsum/Einsum;context_transformer_0/ffn_layer_1/intermediate_dense/Relu;context_transformer_0/ffn_layer_1/intermediate_dense/add f4 [32]
00000000: c9ea fabd 979c bc3d dfb6 b3be 00cd 10bf
00000010: 1784 55be 55d7 01bd 5abd e0be 6629 07be
00000020: 26ba 92be 465f b1be c925 e9be 4636 05be
00000030: 2b0d 17be e9ca 04be 32e1 21bf c6e4 bebe
00000040: 5e30 e6bd 8732 44be f6bd 3ebe 1f83 9ebd
00000050: 37fe f1bc fef0 aebe 8fd4 8bbe c8e1 0dbf
00000060: 6651 e9bc bb8f 68be a04f babd 292f 133b
00000070: 5ed7 96be 5e85 053e d468 e7bd bad4 d1be
-0.12251813 0.09209555 -0.35100457 -0.56562805 -0.2085117 -0.031699497 -0.43894464 -0.13199386
-0.28657645 -0.34643 -0.4553664 -0.13008985 -0.14751117 -0.12968029 -0.63234246 -0.37283915
-0.11239694 -0.191599 -0.18627152 -0.07739853 -0.029540164 -0.34168237 -0.27310607 -0.5542264
-0.028481197 -0.22711079 -0.090972185 0.002245853 -0.29461187 0.13039157 -0.11299291 -0.4098261

context_transformer_0/ffn_layer_0/norm/mul;context_transformer_0/ffn_layer_0/norm/add;context_transformer_0/ffn_layer_1/intermediate_dense/einsum/Einsum;context_transformer_0/ffn_layer_1/intermediate_dense/Relu;context_transformer_0/ffn_layer_1/intermediate_dense/add f4 [32, 32]
00000000: 7a12 7d3e f941 18bc 2937 40be 3d90 593d
00000010: 034d 943c 039f ec39 7783 c73d 42cf 323e
00000020: b9e9 0abd 5c90 323e cb76 423e 97cc 823d
00000030: bc8e 9b3e 89ed 213e 5f01 343e c0aa 1cbd
00000040: 9194 94be a954 01be f612 f9bd 3b08 a03e
00000050: 2da1 043d f330 9ebd 7ed8 793d dae6 a8bd
00000060: 97ec 74bd a152 183e c19c 103d 77b6 123e
00000070: 3900 093e 2d17 093e 570b b2bc 5a5f 72bd
00000080: 98ea 8bbd cc5b 8d3c 5e21 fbbb 32d0 84bd
00000090: 05f4 1c3e f71d 8f3e 3975 e8bc 904f e53c
000000a0: 0852 5fbc 88d2 cbbd 7bef a13e 24b0 18be
000000b0: 0b67 f43c 9ecb e53d d8cd f4bd 340c 403e
000000c0: 76e5 33bd f108 1f3d 02d3 2e3d 9893 1a3e
000000d0: ad91 2abe 982e 86bd f82c 78bd 495f 61be
000000e0: 8acb 833d 0940 3cbe 2217 983d fa88 93bd
000000f0: df1b 65be 42ee 4dbe 7314 913d fb36 9abe
00000100: 6c65 d73d 744f 50bd 4fd1 e5bd fc0c d5bd
00000110: 5043 4dbe 5ee5 25be 3f8f 3ebd 01a2 583e
00000120: 0607 3d3e fecd 1ebd c150 6c3c d370 893e
00000130: c9c1 38be eb23 28be 8d4f 4e3e 0958 3b3e
00000140: a4ae b13c ec2b 62be ec8c d43d 8b0c a73e
00000150: 3941 3c3f a2f3 d9be 766b edbd 2f0e 02be
00000160: d2cb 873e aa08 5c3e 36a6 873e 384f 0f3e
00000170: f984 a0bc 9fa7 babe 9a36 29bd 1df0 06bf
00000180: 0751 08bd af2a 303e 461e de3d 33ad e43c
00000190: 2fae 75bd 6e17 0a3d 4537 79bd c9cb e63c
000001a0: d4e3 3a3d 5787 8e3d 7bb5 6e3b a066 cfbc
000001b0: 6e7f 923e c3c5 303c 84ad 7fbd 7ee9 903c
000001c0: 146d a73e 5956 b0be 137c efbd ff35 f9bc
000001d0: 8f93 a53d dd29 333e 3c66 8fbc 05ff 6d3d
000001e0: b144 08bd 5d4c c6bc a3dd 033e 1039 c83d
000001f0: 6d65 0dbd b317 c8bd b307 07be 5ccb 873d
00000200: 7707 07bd 7cbe 9c3e a8a5 e43c 700d 273e
00000210: 1453 dcbd 0f07 103d 1473 07bd ee55 86bd
00000220: 3998 e2bd 7717 0cbe addc cabc 33e6 da3c
00000230: f0de 0c3d 9ff5 5f3e 9029 e8bd e9e4 fc3d
00000240: 0446 16be 30ae 503d 95ab 6fbd 7ec0 e13d
00000250: 089e 4bbd 90aa b63d 2a9d 533d d9cb 6c3e
00000260: f2de cb3e 5fc6 26be 347b 213d cf32 06bb
00000270: 3626 1a3b 2fa4 4fbc ed1f a2be b4f7 15be
00000280: f400 483e 0a2c fcbd 84b4 7abd 5761 2d3e
00000290: 9649 393d ab91 7c3b 6642 d1bd ced5 853d
000002a0: 1f5b 743d d93a 2b3e ee6c 6f3d cc31 38bc
000002b0: a34a 5ebe d0ab 593d 813e eb3c f62f 83bd
000002c0: 1d4f 1bbe a68e 1b3e a8f3 003e e5c7 b93d
000002d0: bee9 29be 2b99 22be 4d9b 87bc 098e 0cbd
000002e0: a882 283e ae85 073d 1a48 ccbd aca2 babd
000002f0: 3c8e 033e 453e 663d 0dbd cf3d 6b91 dbbd
00000300: b5e4 66bd 510e 303d ad7e afbd 2c8d a1bd
00000310: e583 d03d 58c8 5d3e f504 793e 76f1 0abe
00000320: 286e c3bd 788d 443d 8863 05be 0832 023e
00000330: df60 9a3e 4317 d73d 67f5 3c3e c22e 42be
00000340: ca57 263c 3afb 603d aa7c 10be 2e61 933c
00000350: 016a c43e 7650 0b3d de26 07be 401c ab3d
00000360: 8957 5abe b1ad 8b3d 7311 4abe 4aae 21bd
00000370: d9cb 943e c38d 0c3e e987 9a3d 6cf9 36be
00000380: c811 1c3e b19e 1e3d e2f8 0cbb 4c82 c63e
00000390: 333f dfbd 7ba8 45be 6901 55bd 3359 5ebd
000003a0: 581a 073e d8c0 3a3d 54da cebc 971e e13d
000003b0: 4321 bfbd bbc3 b23e 7898 ecbc 05fb 1abd
000003c0: 5ddc 003e 4668 9f3e dd33 013d db6d f9bc
000003d0: 6e36 0b3e 9c2f 6cbd b8b6 603d 3b16 2bbe
000003e0: df6f 6cbe 51f4 fbbd 7638 96bd 991a 68bc
000003f0: d2f8 ce3d 35be 89be 9025 3bbe 3ac3 eb3e
0.2471408 -0.009293073 -0.18771042 0.053116072 0.018103128 0.000451319 0.09741872 0.17461875
-0.0339143 0.17437881 0.18990628 0.06386679 0.30382335 0.15813269 0.17578648 -0.038248777
-0.29019597 -0.12629952 -0.1216182 0.3125628 0.03238027 -0.0772418 0.06099748 -0.082471564
-0.059795942 0.1487527 0.035305742 0.14327417 0.13378991 0.13387747 -0.021733923 -0.059172966
-0.068318546 0.017255686 -0.00766389 -0.064850226 0.15327461 0.2795255 -0.028376209 0.02799204
-0.013630398 -0.09952265 0.31628022 -0.14910942 0.029834291 0.112204775 -0.11953324 0.18754655
-0.043920003 0.038826887 0.0426817 0.15095365 -0.16657133 -0.06551856 -0.06058976 -0.22009005
0.06435306 -0.18383802 0.07426287 -0.072038606 -0.22373913 -0.2011042 0.070839785 -0.30120072
0.105173916 -0.050857022 -0.11221563 -0.10402867 -0.20045209 -0.16200778 -0.04652333 0.2115555
0.1845971 -0.03877067 0.01442355 0.2684389 -0.18042673 -0.16419952 0.20147534 0.18295301
0.02168972 -0.22087067 0.10378441 0.32626757 0.7353702 -0.4256869 -0.11592762 -0.12700723
0.2652269 0.2148768 0.26493996 0.13995063 -0.019594656 -0.3645601 -0.041311838 -0.52710134
-0.0332804 0.17203782 0.10845618 0.02791462 -0.059980568 0.03371375 -0.060843725 0.028173344
0.04562743 0.06959408 0.0036424089 -0.02531749 0.28612846 0.010789338 -0.062421337 0.017689463
0.32700408 -0.34440878 -0.11693587 -0.030421255 0.08084785 0.17496438 -0.017504804 0.058104534
-0.033268634 -0.024206335 0.12877516 0.09776509 -0.034520555 -0.09770145 -0.13186531 0.066305846
-0.032966103 0.30614078 0.027911022 0.1631372 -0.107580334 0.03516298 -0.03306873 -0.065593585
-0.110641904 -0.13680826 -0.02476343 0.026721096 0.034392297 0.21871041 -0.113360524 0.12348349
-0.14675146 0.05094737 -0.058513243 0.11023043 -0.049711257 0.08919251 0.051663555 0.23124637
0.3981853 -0.1628661 0.039424136 -0.0020477062 0.002352131 -0.012673422 -0.31664982 -0.14645272
0.19531614 -0.12313087 -0.06120731 0.16931663 0.045236193 0.0038538973 -0.102177426 0.06534921
0.059657212 0.16721667 0.058453493 -0.011242341 -0.21708159 0.05314237 0.028716328 -0.06405632
-0.15166898 0.15191135 0.12592947 0.0907133 -0.16593072 -0.15878741 -0.016553545 -0.034315143
0.16456091 0.03308647 -0.0997469 -0.091130584 0.12847227 0.05621173 0.101434804 -0.10721096
-0.056370456 0.042982403 -0.08569083 -0.078882545 0.10181407 0.21658456 0.24318297 -0.13568673
-0.09542495 0.047986478 -0.1302625 0.12714398 0.30152032 0.10502484 0.18452989 -0.18963149
0.0101527665 0.05492709 -0.14110056 0.017990675 0.38362125 0.03401228 -0.1319842 0.08354998
-0.21322455 0.068202384 -0.19733219 -0.039472856 0.29061773 0.13725953 0.07545454 -0.17868584
0.15241158 0.03872556 -0.002151065 0.38771284 -0.10900726 -0.19302551 -0.052003298 -0.054284286
0.13193643 0.045594066 -0.025250591 0.10992163 -0.09332516 0.34914955 -0.028881297 -0.037837047
0.12584062 0.31134242 0.0315436 -0.030447891 0.13594982 -0.05766259 0.054861754 -0.16707699
-0.2308955 -0.12302459 -0.07334988 -0.014166498 0.101060525 -0.2690293 -0.18276048 0.46047384

context_transformer_0/ffn_layer_2/intermediate_dense/einsum/Einsum;context_transformer_0/ffn_layer_2/intermediate_dense/Relu;context_transformer_0/ffn_layer_2/intermediate_dense/add f4 [32]
00000000: e588 b7be 1a0c 9dbd 38ef fdbd e042 75be
00000010: cfcf 8d3a 0868 82be 0c09 79be 5258 d3be
00000020: 568b 143d 4f0a 07be 6021 1dbe cfbe 26be
00000030: a260 90be d8a7 8fbe d6ed 4bbd c141 90bd
00000040: 25bd 80be 8058 9d3d ec23 f8be 4ad4 2ebe
00000050: d35a c5bd 40f2 f2bc b2e4 9fbe 14d0 d3be
00000060: 6964 18be 2e19 e6bd a6fb 00bf 8bd1 96bd
00000070: bc45 acbe 1799 02bf 80aa 79be 657f 4abe
-0.3584663 -0.07668324 -0.12399143 -0.23951292 0.0010819378 -0.25469995 -0.24319857 -0.4127832
0.036265694 -0.13187526 -0.15344763 -0.16283725 -0.28198725 -0.28057742 -0.049787365 -0.070437916
-0.25144306 0.07682896 -0.48464906 -0.1707317 -0.09636464 -0.02965653 -0.31229168 -0.4136969
-0.14882053 -0.112352714 -0.50383985 -0.07364186 -0.33646953 -0.51014847 -0.24381447 -0.1977516

context_transformer_0/ffn_layer_1/norm/mul;context_transformer_0/ffn_layer_1/norm/add;context_transformer_0/ffn_layer_2/intermediate_dense/einsum/Einsum;context_transformer_0/ffn_layer_2/intermediate_dense/Relu;context_transformer_0/ffn_layer_2/intermediate_dense/add f4 [32, 32]
00000000: 6e94 b43d deb4 9e3e 8776 74bd 7397 76bd
00000010: e611 053e 7d0c 883a 5b23 423d dc80 a7bd
00000020: 3509 483d 3393 b5bd c636 27bc 98da d5bd
00000030: 5fa9 8ebd 4d42 8c3d 4bef 0f3d 9ae9 463e
00000040: 3e93 9dbd 0f8c 6d3e 1e95 133e ccd0 6a3b
00000050: 494b 073e b657 bc3c d5ae 063e 1ebc 293e
00000060: fd27 a7bd 9fb2 fa3d 867c bfbd dadd 07be
00000070: 119f d73d b7d3 103e f55f 22bd 5d6d d3bd
00000080: bc3d 4f3a 5b22 613a 2dc3 263b 55a4 5c3c
00000090: 89fc 1bbc f554 60bc e519 15bb e1db ce3c
000000a0: 8f1f 21bc b053 fb39 7557 4b3c 9644 bbbb
000000b0: 5801 9bbb 488c cd3c 2af0 38bc 519d 743c
000000c0: aff6 8cbb e0d9 633c ff79 803a 021a 723c
000000d0: de44 95bc 25e8 84bc 0236 28bc 3f38 1f3c
000000e0: a084 a23c ed33 c9ba ac9c 863c 0dbc ee3c
000000f0: a864 273c 8b21 063b 5d43 c7bb b159 35bb
00000100: 2f30 873e c7ab c6bd 93d8 ddbd 450a debd
00000110: b255 abbe d4d1 c0bd a11b 86be acc8 b83d
00000120: 3706 c13d 9c2b 9fbd f827 cd3c affa a83d
00000130: d60c dbbc bbca 253e ce7e 17be 6ab0 853e
00000140: 9765 b8bd ae7c 0e3d 5859 3d3b 0eb4 09be
00000150: 195f 113d e51c d93d f58b 553d a3f3 12be
00000160: bab7 35bd 8ef2 be3d 651d c33b 7cad f03b
00000170: f0cd 14be 6e8a 45be bd67 97bd a231 9bbd
00000180: 12fd 953d 1507 203e 07a0 2e3d 4ca3 6e3d
00000190: d485 a1bd cfeb 54be 4424 d63d 69d4 eb3d
000001a0: aaaf b639 e551 783d e9be 9f3c 0c17 f0be
000001b0: 4fd9 8c3b 4e2e 943e 8af7 50be e737 57bd
000001c0: 3599 afbc 698c 283e ab85 07bd f75e 4f3e
000001d0: dbf1 81bd c831 15bd a19f 383e 333b 623e
000001e0: 518e 823e 3bc6 603d 7ca6 68bb 3023 193e
000001f0: 5cee 443e f323 5b3d 114a 0fbe 10a7 79bd
00000200: 979a 9a3c 9870 c1bd f20b 8abc 8e7b 233d
00000210: 7f82 963e 0c29 babb a87b da3d 854a f1bd
00000220: cb43 023e a3ee c93d 9216 3ebe 0b28 e3bd
00000230: 5b5f 71bd 4613 acbd cb9a bd3e 8358 8bbc
00000240: 7a6a c83d d990 e4bd 3987 7fbe 0ae1 113e
00000250: 8480 ac3b d7ab 0bbe 01c6 48bd 0dd1 3ebe
00000260: 8e20 183e 0f26 5dbe 24d2 7e3d 677d 63be
00000270: 348e 11be 2150 d93d 6557 45be ca51 8fbe
00000280: 54db 063d 2e54 7bbd ddaa 07be da06 2e3e
00000290: eb1d 69be 7f8a 99bd bc13 12bd 8bd5 363e
000002a0: 270a 38be dbba f8bb 90e3 433e e639 f63c
000002b0: 2937 113e c4ab cf3e 99e1 f9bd 8f48 93bd
000002c0: eb0e 283e b7b7 ed3d eaaa 18be 30ab 44be
000002d0: 7fac f83d 5533 85be 7c49 1d3e 2e3b 4abc
000002e0: c4ee 4cbe 7bfc 15be e3db 28be eae5 27be
000002f0: 5050 58be d37e c5bd 8943 80bc aced 56bd
00000300: ff0a 783e ee89 c9bb eb53 44be d228 a73e
00000310: e18f 48be 8445 11bb f2c8 3b3e 7eda 92bc
00000320: 9941 3e3d 16c3 a7bd cad3 e5bc 76dc afbc
00000330: 925a 5c3e 4c9a a53e a25f 49bc 1472 113e
00000340: 44c5 56bd 4f90 28bc faf3 21be 1ddf 7cbc
00000350: e220 5d3d 87bf 733e c829 2e3d 7290 1fbd
00000360: 0376 aa3e 70c6 e4bd d0bb 70bd 431e 8f3e
00000370: eb3e 143d dfbd b83d 4eb9 18be fe3f 21be
00000380: a810 eebd 6e4c 973d 539d cf3d ab3f fcbb
00000390: 853a e6bd b118 3d3d acb1 f1bd 43d9 f43d
000003a0: 3aa2 d3bd 8894 923d 0487 343d bf74 17be
000003b0: 32b6 653e e80f 113c 9e97 233d 8e52 b5bd
000003c0: 52fb c83d 165c 72be 3729 b2bd f6e0 61bd
000003d0: d2e5 1dbd e340 e83c 01e9 003c 6373 223d
000003e0: 702f 263e 8387 25be c610 1c3e e831 ba3d
000003f0: 34a7 983d 94ac 06b9 0e55 85bd e45f 433d
0.08817373 0.30997366 -0.05968335 -0.060203027 0.12995109 0.0010379698 0.047397 -0.08178875
0.048836906 -0.08865967 -0.01020593 -0.10442084 -0.06965899 0.06848583 0.035140317 0.1942505
-0.076941 0.2319796 0.14412352 0.003583002 0.13212313 0.022991043 0.1315263 0.16575667
-0.08161924 0.122411005 -0.09349923 -0.13268223 0.105283864 0.14143263 -0.039642293 -0.10323594
0.00079056225 0.0008588188 0.0025445924 0.013466914 -0.009520658 -0.01369213 -0.002275103 0.02525133
-0.009834184 0.00047936803 0.012410988 -0.005714963 -0.004730385 0.025091305 -0.011287728 0.014930085
-0.004301868 0.013906926 0.0009801983 0.014776709 -0.018221315 -0.016223976 -0.010266783 0.009718
0.019838631 -0.0015350558 0.016432129 0.029142404 0.010216869 0.002046677 -0.0060810284 -0.0027671868
0.2640395 -0.09700733 -0.10832324 -0.108418025 -0.33463818 -0.094150215 -0.26192954 0.0902265
0.094250135 -0.0777199 0.025043473 0.08250939 -0.02673952 0.16190617 -0.14794466 0.26111156
-0.09003752 0.034786873 0.0028892364 -0.13447592 0.035491083 0.10601214 0.052135427 -0.14350753
-0.04436467 0.093236074 0.005954432 0.0073448997 -0.14531684 -0.19291088 -0.073928334 -0.07577826
0.0732366 0.15627702 0.042633083 0.0582612 -0.07886854 -0.20793079 0.10456136 0.115151234
0.00034844625 0.060624976 0.019500213 -0.46892583 0.004298366 0.28941578 -0.20406929 -0.052543547
-0.02143536 0.16459812 -0.03308646 0.2025107 -0.063449584 -0.03642443 0.18029644 0.22092895
0.25499204 0.054876547 -0.0035499623 0.14954829 0.19231552 0.05350108 -0.13993098 -0.06095034
0.018872542 -0.09445304 -0.0168514 0.039912753 0.29396436 -0.0056811627 0.10668117 -0.117817916
0.12721173 0.098599695 -0.18563297 -0.11091622 -0.05892883 -0.084021136 0.3703216 -0.01700998
0.09785934 -0.1116044 -0.24953927 0.14246002 0.0052643437 -0.1363977 -0.049016956 -0.18634434
0.14856169 -0.2159655 0.062212124 -0.22215806 -0.14214402 0.106109865 -0.1927162 -0.27992088
0.03292401 -0.061359577 -0.13248773 0.16994801 -0.22765319 -0.07497119 -0.03566335 0.17854898
-0.17972623 -0.0075906343 0.19129777 0.030056905 0.14181198 0.40560734 -0.122012325 -0.07191574
0.16411941 0.116073065 -0.14908949 -0.19205928 0.12142276 -0.26015726 0.15360063 -0.012343211
-0.20012957 -0.14647095 -0.1649013 -0.16396299 -0.21124387 -0.096433304 -0.015657203 -0.052472755
0.24222945 -0.0061504757 -0.19172637 0.3264833 -0.19586135 -0.0022166679 0.18338373 -0.01792645
0.046449278 -0.081915066 -0.02805509 -0.021467429 0.21518925 0.32344282 -0.012290867 0.14203674
-0.05243422 -0.010288312 -0.15815726 -0.015434054 0.053986438 0.2380353 0.042520314 -0.038956113
0.3329316 -0.111706614 -0.058772862 0.27952775 0.036192816 0.0902059 -0.14914438 -0.15747067
-0.11624271 0.07387625 0.10137429 -0.0076980195 -0.112416305 0.046166126 -0.11801466 0.11955502
-0.10333677 0.07157236 0.044074073 -0.14790629 0.22432783 0.00885389 0.039939515 -0.08853637
0.098135605 -0.2366794 -0.08699267 -0.05514618 -0.03854925 0.028351253 0.007868052 0.039660823
0.16229033 -0.16164975 0.15240774 0.0909155 0.074537665 -0.00012843526 -0.065103635 0.04769887

context_transformer_0/ffn_layer_3/intermediate_dense/einsum/Einsum;context_transformer_0/ffn_layer_3/intermediate_dense/Relu;context_transformer_0/ffn_layer_3/intermediate_dense/add f4 [32]
00000000: 1e63 bbbd ba47 013d 1ec1 da3c 5ad5 fbbd
00000010: ff15 dbbe 98e3 13be fb6d 15be 477c 54be
00000020: e6d0 09be 14ad b1bd 7f0f 3dbd ae1b adbe
00000030: 81e1 99bd c5fe acbd 5853 493e 1622 07be
00000040: 78ad 803e 1221 a9be a43a 1bbe e4f9 adbd
00000050: ddc3 fdbd e169 e6bd 7a7b 1abe d414 81be
00000060: 9534 94bd 10ac 2fbe 19b9 91bb 443c 1dbc
00000070: b58e ddbd fc75 87bd 1f46 67be f2ce 12be
-0.091497645 0.031562544 0.026703414 -0.12296553 -0.4279022 -0.14442289 -0.14592735 -0.20750533
-0.13458595 -0.0867559 -0.046157356 -0.3381018 -0.075137146 -0.08447031 0.196607 -0.13196597
0.25132346 -0.33033043 -0.15159088 -0.084949285 -0.123908736 -0.112506635 -0.15086165 -0.25211203
-0.07236592 -0.1715548 -0.004447114 -0.009596888 -0.10818235 -0.066143006 -0.22585343 -0.14336756
